#loc = loc(unknown)
#loc11 = loc("state[0]")
#loc12 = loc("buffers['input']")
#loc13 = loc("sample_rate")
module @jit__update_fn attributes {jax.uses_shape_polymorphism = true, mhlo.num_partitions = 1 : i32, mhlo.num_replicas = 1 : i32} {
  func.func public @main(%arg0: tensor<i32> {jax.global_constant = "_platform_index"} loc(unknown), %arg1: tensor<f32> loc(unknown), %arg2: tensor<?xf32> loc(unknown), %arg3: tensor<f32> loc(unknown)) -> (tensor<f32> {jax.result_info = "result[0][0]"}, tensor<?xf32> {jax.result_info = "result[1]['output']"}) {
    %c = stablehlo.constant dense<0> : tensor<i32> loc(#loc)
    %c_0 = stablehlo.constant dense<-1> : tensor<i32> loc(#loc)
    %c_1 = stablehlo.constant dense<1> : tensor<i32> loc(#loc)
    %0 = stablehlo.get_dimension_size %arg2, dim = 0 : (tensor<?xf32>) -> tensor<i32> loc(#loc58)
    %1 = stablehlo.compare  GE, %0, %c_1,  SIGNED : (tensor<i32>, tensor<i32>) -> tensor<i1> loc(#loc59)
    stablehlo.custom_call @shape_assertion(%1, %0) {api_version = 2 : i32, error_message = "Input shapes do not match the polymorphic shapes specification. Expected value >= 1 for dimension variable 'BufferSize'. Using the following polymorphic shapes specifications: args[1]['input'].shape = (BufferSize,). Obtained dimension variables: 'BufferSize' = {0} from specification 'BufferSize' for dimension args[1]['input'].shape[0] (= {0}), . Please see https://docs.jax.dev/en/latest/export/shape_poly.html#shape-assertion-errors for more details.", has_side_effect = true} : (tensor<i1>, tensor<i32>) -> () loc(#loc60)
    %2 = stablehlo.convert %0 : tensor<i32> loc(#loc61)
    %3 = stablehlo.add %2, %c_0 : tensor<i32> loc(#loc62)
    %4 = stablehlo.compare  GE, %3, %c,  SIGNED : (tensor<i32>, tensor<i32>) -> tensor<i1> loc(#loc59)
    %5 = stablehlo.convert %0 : tensor<i32> loc(#loc61)
    %6 = stablehlo.add %5, %c_0 : tensor<i32> loc(#loc62)
    stablehlo.custom_call @shape_assertion(%4, %6, %0) {api_version = 2 : i32, error_message = "Input shapes do not match the symbolic shape constraint BufferSize >= 1. Expected 'BufferSize - 1' to be greater or equal to 0, but found {0}.  Using the following polymorphic shapes specifications: args[1]['input'].shape = (BufferSize,). Obtained dimension variables: 'BufferSize' = {1} from specification 'BufferSize' for dimension args[1]['input'].shape[0] (= {1}), . Please see https://docs.jax.dev/en/latest/export/shape_poly.html#shape-assertion-errors for more details.", has_side_effect = true} : (tensor<i1>, tensor<i32>, tensor<i32>) -> () loc(#loc60)
    %7:2 = call @_wrapped_jax_export_main(%arg0, %0, %arg1, %arg2, %arg3) : (tensor<i32>, tensor<i32>, tensor<f32>, tensor<?xf32>, tensor<f32>) -> (tensor<f32>, tensor<?xf32>) loc(#loc)
    return %7#0, %7#1 : tensor<f32>, tensor<?xf32> loc(#loc)
  } loc(#loc)
  func.func private @_wrapped_jax_export_main(%arg0: tensor<i32> {jax.global_constant = "_platform_index"} loc(unknown), %arg1: tensor<i32> {jax.global_constant = "BufferSize"} loc(unknown), %arg2: tensor<f32> loc("state[0]"), %arg3: tensor<?xf32> loc("buffers['input']"), %arg4: tensor<f32> loc("sample_rate")) -> (tensor<f32> {jax.result_info = "result[0][0]"}, tensor<?xf32> {jax.result_info = "result[1]['output']"}) {
    %c = stablehlo.constant dense<0> : tensor<i32> loc(#loc)
    %c_0 = stablehlo.constant dense<-1> : tensor<i32> loc(#loc)
    %c_1 = stablehlo.constant dense<1> : tensor<i32> loc(#loc)
    %0 = stablehlo.broadcast_in_dim %c_1, dims = [] : (tensor<i32>) -> tensor<1xi32> loc(#loc63)
    %1 = stablehlo.convert %arg1 : tensor<i32> loc(#loc64)
    %2 = stablehlo.add %1, %c_0 : tensor<i32> loc(#loc65)
    %3 = stablehlo.reshape %2 : (tensor<i32>) -> tensor<1xi32> loc(#loc66)
    %4 = "stablehlo.dynamic_gather"(%arg3, %0, %3) <{dimension_numbers = #stablehlo.gather<offset_dims = [0], start_index_map = [0]>, indices_are_sorted = true}> : (tensor<?xf32>, tensor<1xi32>, tensor<1xi32>) -> tensor<?xf32> loc(#loc66)
    %5 = stablehlo.broadcast_in_dim %arg2, dims = [] : (tensor<f32>) -> tensor<1xf32> loc(#loc67)
    %6 = stablehlo.convert %5 : tensor<1xf32> loc(#loc68)
    %7 = stablehlo.concatenate %4, %6, dim = 0 : (tensor<?xf32>, tensor<1xf32>) -> tensor<?xf32> loc(#loc69)
    %8 = stablehlo.add %arg3, %7 : tensor<?xf32> loc(#loc70)
    %9 = stablehlo.broadcast_in_dim %c, dims = [] : (tensor<i32>) -> tensor<1xi32> loc(#loc71)
    %10 = "stablehlo.gather"(%arg3, %9) <{dimension_numbers = #stablehlo.gather<collapsed_slice_dims = [0], start_index_map = [0]>, indices_are_sorted = true, slice_sizes = array<i64: 1>}> : (tensor<?xf32>, tensor<1xi32>) -> tensor<f32> loc(#loc72)
    return %10, %8 : tensor<f32>, tensor<?xf32> loc(#loc)
  } loc(#loc)
} loc(#loc)
#loc1 = loc("/workspaces/jxap/python/jax_audio_plugins/export.py":108:25 to 109:69)
#loc2 = loc("/workspaces/jxap/python/jax_audio_plugins/export_test.py":49:8 to :49)
#loc3 = loc("/workspaces/.venv/lib/python3.11/site-packages/absl/testing/_pretty_print_reporter.py":84:13 to :30)
#loc4 = loc("/workspaces/.venv/lib/python3.11/site-packages/absl/testing/absltest.py":2793:19 to :56)
#loc5 = loc("/workspaces/.venv/lib/python3.11/site-packages/absl/testing/absltest.py":2829:35 to 2831:3)
#loc6 = loc("/workspaces/.venv/lib/python3.11/site-packages/absl/testing/absltest.py":2373:6 to :34)
#loc7 = loc("/workspaces/.venv/lib/python3.11/site-packages/absl/app.py":261:13 to :23)
#loc8 = loc("/workspaces/.venv/lib/python3.11/site-packages/absl/app.py":316:6 to :27)
#loc9 = loc("/workspaces/.venv/lib/python3.11/site-packages/absl/testing/absltest.py":2375:4 to :31)
#loc10 = loc("/workspaces/.venv/lib/python3.11/site-packages/absl/testing/absltest.py":2269:2 to :38)
#loc14 = loc("/workspaces/jxap/python/jax_audio_plugins/export_test.py":38:31 to :36)
#loc15 = loc("/workspaces/jxap/python/jax_audio_plugins/export.py":102:29 to :71)
#loc16 = loc("/workspaces/jxap/python/jax_audio_plugins/export_test.py":38:38 to :68)
#loc17 = loc("/workspaces/jxap/python/jax_audio_plugins/export_test.py":38:14 to :78)
#loc18 = loc("/workspaces/jxap/python/jax_audio_plugins/export_test.py":39:12 to :19)
#loc19 = loc("/workspaces/jxap/python/jax_audio_plugins/export_test.py":40:48 to :52)
#loc20 = loc("export_plugin"(#loc1))
#loc21 = loc("ExportingTest.test_export_plugin"(#loc2))
#loc22 = loc("TextTestRunner.run"(#loc3))
#loc23 = loc("_run_and_get_tests_result"(#loc4))
#loc24 = loc("run_tests"(#loc5))
#loc25 = loc("_run_in_app.<locals>.main_function"(#loc6))
#loc26 = loc("_run_main"(#loc7))
#loc27 = loc("run"(#loc8))
#loc28 = loc("_run_in_app"(#loc9))
#loc29 = loc("main"(#loc10))
#loc30 = loc("TestPlugin.update"(#loc14))
#loc31 = loc("export_plugin.<locals>._update_fn"(#loc15))
#loc32 = loc("TestPlugin.update"(#loc16))
#loc33 = loc("TestPlugin.update"(#loc17))
#loc34 = loc("TestPlugin.update"(#loc18))
#loc35 = loc("TestPlugin.update"(#loc19))
#loc36 = loc(callsite(#loc28 at #loc29))
#loc37 = loc(callsite(#loc26 at #loc27))
#loc38 = loc(callsite(#loc27 at #loc36))
#loc39 = loc(callsite(#loc25 at #loc37))
#loc40 = loc(callsite(#loc26 at #loc38))
#loc41 = loc(callsite(#loc24 at #loc39))
#loc42 = loc(callsite(#loc25 at #loc40))
#loc43 = loc(callsite(#loc23 at #loc41))
#loc44 = loc(callsite(#loc24 at #loc42))
#loc45 = loc(callsite(#loc22 at #loc43))
#loc46 = loc(callsite(#loc23 at #loc44))
#loc47 = loc(callsite(#loc21 at #loc45))
#loc48 = loc(callsite(#loc22 at #loc46))
#loc49 = loc(callsite(#loc20 at #loc47))
#loc50 = loc(callsite(#loc21 at #loc48))
#loc51 = loc(callsite(#loc31 at #loc49))
#loc52 = loc(callsite(#loc20 at #loc50))
#loc53 = loc(callsite(#loc30 at #loc51))
#loc54 = loc(callsite(#loc32 at #loc51))
#loc55 = loc(callsite(#loc33 at #loc51))
#loc56 = loc(callsite(#loc34 at #loc51))
#loc57 = loc(callsite(#loc35 at #loc51))
#loc58 = loc("/dimension_size"(#loc52))
#loc59 = loc("/ge"(#loc52))
#loc60 = loc("/shape_assertion"(#loc52))
#loc61 = loc("/convert_element_type"(#loc52))
#loc62 = loc("/add"(#loc52))
#loc63 = loc("jit(_update_fn)/jit(main)/broadcast_in_dim"(#loc53))
#loc64 = loc("jit(_update_fn)/jit(main)/convert_element_type"(#loc53))
#loc65 = loc("jit(_update_fn)/jit(main)/add"(#loc53))
#loc66 = loc("jit(_update_fn)/jit(main)/gather"(#loc53))
#loc67 = loc("jit(_update_fn)/jit(main)/broadcast_in_dim"(#loc54))
#loc68 = loc("jit(_update_fn)/jit(main)/convert_element_type"(#loc55))
#loc69 = loc("jit(_update_fn)/jit(main)/concatenate"(#loc55))
#loc70 = loc("jit(_update_fn)/jit(main)/add"(#loc56))
#loc71 = loc("jit(_update_fn)/jit(main)/broadcast_in_dim"(#loc57))
#loc72 = loc("jit(_update_fn)/jit(main)/gather"(#loc57))
